PyTorch学习/PyTorch实现模板/data/linear.pth (torch_old, 3463 bytes, 2 tensors)

weight f4 [4, 3]
000000 7d ef 86 be 18 02 a8 be 67 46 c1 be e2 13 0b bf
       -0.2635459 -0.32814097 -0.37749025 -0.54327214
000010 40 02 38 bd d0 11 4e 3e f0 5a d9 3e ac e1 04 3f
       -0.04492402 0.20123982 0.42452192 0.5190685
000020 be 38 da be b6 c0 00 3f 20 ab 72 bd f0 a6 1d 3d
       -0.42621416 0.50294054 -0.05924523 0.038489282

bias f4 [4]
000000 12 57 48 be b6 f5 aa 3e 45 b8 8f be ee 23 d6 3e
       -0.19564465 0.33390588 -0.28070274 0.41824287
